width_multiple: 1.0
depth_multiple: 1.0

backbone:
 - [-1, 1, Conv, [64, 7, 2]]
 - [-1, 1, tf.keras.layers.MaxPooling2D, [2, 2, "valid"]]
 - [-1, 8, CSPResNet, [64]]
 - [-1, 1, Conv, [128, 3, 2]]
 - [-1, 16, CSPResNet, [128]]
 - [-1, 1, Conv, [256, 3, 2]]
 - [-1, 16, CSPResNet, [256]]
 - [-1, 1, Conv, [512, 3, 2]]
 - [-1, 8, CSPSEResNet, [512]]

head:
 - [-1, 1, ClassifyR, []]